final_mode_vggresnet.pth (torch, 913618 bytes, 19 tensors)

conv1.weight f4 [64, 3, 3, 3]
00000000: cd9c 34be 7e03 2f3e 0db4 98bc c606 ca3d
00000010: 0825 c63b 2d86 553d 0079 9dbc fd90 013e
00000020: 5a3a b5bd bd9a 2d3e e89e 4ebb 14d8 3dbe
00000030: 1e88 073e 2649 38be c2bb 9fbd eb6d 3ebb
00000040: 8f67 41be 821d ec3d 9e3d 34be 5dbd 8abd
00000050: 26e7 b5bb dd3b 07be 533a 36be eeb0 b0bd
00000060: 0547 0bbe 758f 3fbd 652c 2b3e a526 343e
00000070: 517b e03d 8c52 cd3d f577 a8bd 5ca2 773d
00000080: 93cd 313d 6f63 fe3d 7cbe adbd 75f4 0b3c
00000090: 9654 b33c da50 08be 2e37 f1bd 4c10 563e
000000a0: 00e7 043e 8d6a 83bd c261 0f3e 975e 043e
000000b0: cc01 1b3d 1610 39bd 3b5b 993d 7e08 103e
000000c0: adbe 02bd a408 0a3e 7a88 3dbe b84e f33d
000000d0: 1a44 6abd 4c1a c3bd f42b 303e 79c0 313e
000000e0: a8e0 3abe ef3d a23d 5294 d33d 386c 1a3e
000000f0: 74c8 3ebe 2b89 1d3e cade 273e 2eeb 2dbc
00000100: 8b25 39be e372 4d3c 678a 93bd 9225 eebc
00000110: f6b3 1d3e 9e19 9dbd 9d03 cfbd e4c0 8e3c
00000120: 9b9c 803d d03a 083c 015a 253e 8690 763d
00000130: f240 37be 6d64 233e 96be d7bd 6246 37bd
00000140: 4b51 a63d 7ef9 45be df92 093e 845c 28bb
00000150: 6efc 2f3e 3242 d4bd 9772 c43b 5f9e 293e
00000160: 04df 9c3d d9b8 0cbd a2fe 8d3d 3386 cd3d
00000170: bbde 023e 6cc8 ff3d 6cc6 f4bd 647f 7a3d
00000180: d418 fb3d 892f 5b3d ca79 9c3d bfa7 9abd
00000190: ef0e 293e 5fbd 06bd 8b2a f13c 01b8 fa3c
000001a0: 54e9 433d 065b 16be 5e24 f43d 7c0f 2bbe
000001b0: b7ef 4c3e bdf8 153e 1e2e 94bc 025d 9fbd
000001c0: 1982 2bbe 5c75 ccbd a976 9a3d e8b4 43be
000001d0: 341b ed3d 4f1d c4bd 169c 303e 2fb0 e13d
000001e0: 177c f1bd 06a1 eebd e1a6 18bd 5ef8 b0bd
000001f0: 4094 b63c ff8b c4bd a711 ee3d 15b4 82bd
00000200: 827f 06bd 9f4d 0ebe 7bac 7dbd 16fc 68bd
00000210: 274c d13d 23fc 123e 64dc 6e3d 5ff1 4e3c
00000220: bfa9 9e3b c1bb 2ebe 3113 72bd 2ff0 49bd
00000230: 4492 d7bd 3151 8fbd d72d c8bd c95f 72bd
00000240: 8cf2 c83d 452b 0cbe b330 e8bd 50ae 22be
00000250: fbf2 43bd a72a 21be 5463 41bd 2607 aebd
00000260: b357 233e 3c38 4e3d 74e8 043d a92a dfbd
00000270: 1e8b fcbd d7d9 1ebe d111 f5bd 2ddc c33b
00000280: 2e92 bc3b 5ffd 843d 720c cdbd 7056 3cbd
00000290: 7cc0 f13b b1bb 973c 734f 90bc c8ca 37be
000002a0: 5743 7b3d d35e c53d 3b80 2d3c 7d13 dabd
000002b0: 20f8 57bd 5f54 a73d 760c 8f3d 1c1e 643b
000002c0: ebfa e1bd 8a24 1b3e bd46 e2bd fc6a 05bc
000002d0: dafc 1c3e 1f77 403e a4f5 1a3d f5d9 7a3c
000002e0: 3330 2dbe 6f53 d2bd ee0f b5bd 0cec ac3d
000002f0: da80 42be 0994 08be 6012 ffbd 35a6 96bd
00000300: 811e a0bc 56c0 413d 9aa0 2f3e 47c1 3ebe
00000310: 53bf b83c 8255 f4bd decc 42be c0d3 24be
00000320: 4887 a53c 60ae 343d 241f 3b3e aa31 48bd
00000330: 8fed 8ebd 09b2 2dbd 57db cb3d 29dc 19be
00000340: eefb 123c 367a 273e ad3f e33b d33e d53d
00000350: d31c 6c3d 99ad 243e 7f2f 043e 0f53 eebd
00000360: 325f 273e 9234 b03b ed41 cf3d feee 13be
00000370: 7698 8cbd c2bd f33c 665d f5bd 3707 d6bd
00000380: 618f f7bd 1303 8ebc cfbc 10be f227 51bd
00000390: e37b 193d fe54 af3c e59d e1bd fcee 4d3d
000003a0: 694b c73d de3a 00be e38c 4a3c f0ab 43be
000003b0: 6d1d 17bd 1ac4 e43b 489f e23c e5aa 283d
000003c0: 56c8 8ebc 2590 f3bc 3544 c43d 47a6 0c3e
000003d0: 79fe 183e 15c8 5bbd a89e 15be fbe8 123b
000003e0: d4e0 fabd 46f5 e63d b8a0 84bc d802 cebd
000003f0: 266c 12be deb3 f1bd e85f 21be 7418 a63c
-0.1763794 0.17091176 -0.018640542 0.09864573 0.006046895 0.052129913 -0.019222736 0.12652965
-0.0884902 0.16953559 -0.003152782 -0.18539459 0.13235518 -0.17996654 -0.07799484 -0.0029057215
-0.1888716 0.11529066 -0.1760163 -0.067743994 -0.0055512367 -0.1320643 -0.17795686 -0.08627497
-0.1360131 -0.04676767 0.16716154 0.17592867 0.10961021 0.1002551 -0.08226005 0.060457572
0.04340894 0.12421309 -0.08483598 0.00854217 0.02189092 -0.13312092 -0.11778103 0.20904654
0.12978745 -0.06416807 0.14002135 0.12926708 0.03784351 -0.045181356 0.07488104 0.1406574
-0.031920124 0.13479859 -0.18509093 0.11880249 -0.057193853 -0.095265 0.17204267 0.17358579
-0.18249762 0.07921969 0.10331024 0.15080345 -0.18631154 0.15384357 0.16393581 -0.010615153
-0.18080728 0.012539598 -0.072041325 -0.02907065 0.15400681 -0.07670902 -0.10108111 0.017425962
0.0627987 0.008314803 0.16147615 0.060196422 -0.17895868 0.15956278 -0.10534398 -0.044744857
0.08120974 -0.19333455 0.13434933 -0.002568991 0.17186138 -0.10364188 0.0059951055 0.1656432
0.07659724 -0.034355972 0.06933333 0.10035362 0.12780277 0.12489399 -0.119519085 0.061156645
0.12260595 0.05351213 0.07640417 -0.07551526 0.16509603 -0.032895442 0.029439231 0.030605318
0.04782994 -0.1468316 0.11920999 -0.16705126 0.20013319 0.14645667 -0.018088397 -0.07781412
-0.16748847 -0.09983322 0.07542164 -0.19111979 0.11577454 -0.09575903 0.17247042 0.110199325
-0.117912464 -0.116518065 -0.037268523 -0.08641122 0.022287488 -0.09597015 0.11624461 -0.06382004
-0.032836445 -0.13896798 -0.06193207 -0.056881033 0.10219603 0.14353995 0.05831565 0.01263079
0.0048420127 -0.1706381 -0.059100334 -0.049301323 -0.10525945 -0.06997908 -0.09774368 -0.05917338
0.09811887 -0.13688381 -0.11337414 -0.15886807 -0.047839146 -0.15738927 -0.047213867 -0.08497457
0.15951423 0.050346598 0.032448247 -0.10896809 -0.12331222 -0.15512787 -0.11966289 0.0059771747
0.0057547307 0.06493639 -0.100121394 -0.04598087 0.0073776823 0.018522115 -0.01761601 -0.17948449
0.061343517 0.09637227 0.010589655 -0.10648248 -0.052726865 0.081703894 0.069847986 0.0034807986
-0.11034187 0.15150657 -0.110486485 -0.008143183 0.1533083 0.18795441 0.037831917 0.015310754
-0.16912918 -0.1026982 -0.08840929 0.0844346 -0.18994465 -0.13337721 -0.12454677 -0.0735592
-0.019545795 0.047302566 0.17151108 -0.18628417 0.022552168 -0.11930372 -0.19023463 -0.16096401
0.020206109 0.04411161 0.18273598 -0.04887549 -0.069789045 -0.042406116 0.09953945 -0.1502539
0.0089711975 0.16355214 0.006935081 0.104123734 0.057644676 0.16081847 0.12908743 -0.11636936
0.16344908 0.0053773606 0.10119996 -0.14446637 -0.06865017 0.02975357 -0.11980705 -0.10450595
-0.12087894 -0.01733545 -0.14134525 -0.051063485 0.037471663 0.021402832 -0.11016444 0.05027674
0.0973118 -0.12522456 0.012362692 -0.19108558 -0.036893297 0.006981385 0.027663842 0.041178603
-0.017429512 -0.02973182 0.09583322 0.13735305 0.14940824 -0.05365761 -0.14611304 0.00224167
-0.12249914 0.11277251 -0.016189918 -0.10059136 -0.14299068 -0.11801885 -0.15759242 0.020275332

conv1.bias f4 [64]
00000000: 4a24 e3bd 91a5 073e d374 25be 23a3 45be
00000010: f874 7d3d cc98 0abd 3572 77bc f19d 0d3e
00000020: 47d7 94bd 333f 69bd dc97 35be 0900 863d
00000030: 5608 22be 9be0 5d3d 9ea7 e33d 04f3 033d
00000040: ec6e 6d3d b145 21be 68ea e13d 8aeb dc3d
00000050: 59a5 173d eb5d c63d 1f78 efbd d062 2d3e
00000060: e703 013e cbcf 393e 7044 5bbd fe19 153e
00000070: b339 64bd b6e9 b4bd a14a 4abc 712f 343e
00000080: 6a85 05be 5a9d febd a74e dcb8 8951 ce3d
00000090: daeb b13d 3dbc 7dbd 0625 b7bd 3113 e73d
000000a0: 54c1 263e 23d5 de3d 40aa 233e 0338 8bbd
000000b0: c466 28be 3c29 053e 892b c4bd 29f3 f3bc
000000c0: 3a11 f93d 9508 c83d ce0a a5bd 4cef 0a3e
000000d0: a6be 673d 4b03 28be a06f b23d 8398 243e
000000e0: 318a ce3d c0f8 30be 7822 07be 6a40 efbd
000000f0: 1a57 203e c98c 2ebe 05b1 e6bd ec01 6c3d
-0.11090906 0.13246752 -0.16157846 -0.19300513 0.06187913 -0.033837125 -0.015102913 0.13829781
-0.072676234 -0.056945037 -0.17733711 0.065429755 -0.15823492 0.05416928 0.11115955 0.03221418
0.05796711 -0.15749241 0.110310376 0.10787113 0.037022922 0.09685882 -0.11692833 0.16932225
0.12599145 0.18145673 -0.053532064 0.14560696 -0.05571909 -0.08833639 -0.0123468945 0.17596222
-0.13039175 -0.12432356 -0.000105050676 0.10074145 0.08687563 -0.061947096 -0.089426085 0.11282957
0.16284686 0.10880496 0.15982914 -0.06797793 -0.16445452 0.13004011 -0.09578616 -0.029779034
0.12161489 0.09767262 -0.080587015 0.13567847 0.0565783 -0.16407506 0.08712697 0.16073804
0.10084952 -0.1728239 -0.13196743 -0.11682208 0.15658227 -0.17045893 -0.112642325 0.05761902

class_embedding.weight f4 [15, 64]
00000000: 8d86 593f a1b2 7d3f b40d 86bf 5cc2 d23f
00000010: 323b 64bf 6ccc f1bf bb0c 32bf afac eebe
00000020: 0cf1 2a3f 38e9 3f3f 5b92 1fbf 6cb5 3abd
00000030: 5bc7 af3e 528a 3e3f 204c e33f d44d 083d
00000040: 49ff 83bf 1758 ecbe 5ccc b0bf 729d b23e
00000050: 18dc 5bbf 056e 5ebf f28b b8bf 72b9 693e
00000060: 515d 62be 8950 7c3e 6726 723f 8020 96bf
00000070: e632 95be 5f72 eabd db35 853e 7a52 883f
00000080: 1c1a dcbe 74d0 81bf 9266 b33d 97ff b2bf
00000090: 23a8 9b3f f326 a03f cbe5 e8bd f7a2 2b3f
000000a0: 15a7 3abe 65c9 df3f d56e 4b3f 0229 743f
000000b0: cbe2 f7be b1cf 13c0 6a3f 4e3f 8131 123e
000000c0: a8a3 17bf 5504 aa3e f353 8e3f a0b3 f3bf
000000d0: 7187 25be 407b 853f b589 b5be 842d 703f
000000e0: fe35 29bf 32dd 93bd d661 d93e ed64 12bf
000000f0: 187f 8d3f d2c5 d63d 142a f0bf 1325 c03f
00000100: 46b5 4b3e 158b 123f e0d1 11be 3e90 a1be
00000110: 8bf1 0dbf a6d6 a73f 2864 1a3e 264b 823f
00000120: d1df 9cbd 8096 84bf fa77 7abf 4b86 b2be
00000130: 25db f5be 5df0 bc3e a855 e5bf da46 e4bf
00000140: 3775 04c0 d20a 6bbf 56e5 633f cd74 443f
00000150: 1b9b 0540 d27c bc3f e15c f33f 7d77 83bd
00000160: 1032 be3f 2968 773d f7a1 3f3e 622b 6f3e
00000170: 31a1 edbe c89d e63e 6ca7 b73f f9e1 9bbd
00000180: 48b4 10be 5d91 a53f 2a4d 4bbf 6769 b1bf
00000190: b5f7 673c 31a2 90bf d22c 24bf 218c d1bf
000001a0: 7805 a43e 709d de3e 6099 09bf 2b19 963f
000001b0: 717c 00be acd5 d2bf 78db acbf 4444 2cbd
000001c0: 2c46 3bbf 67cd 6fbf 750e 8d3f b00b 8f3f
000001d0: ce0b 523e 3379 edbe fc86 983e 05f9 43be
000001e0: 9cf6 333f ade1 cd3e 4d00 123e eabb 283f
000001f0: 1e71 c83e d558 e9bd 149d 7cbe 87c8 d6bf
00000200: 426c e13e c0a8 fcbe 5b89 85bc 58c4 cdbe
00000210: 05ce cf3e 92ac d63e 4ed4 45bf cbb8 593f
00000220: db91 76bf 0932 7cbf 43b7 a6bf 4eec 293f
00000230: 3bcd 38bf 60a1 d43c f73d 15be 4510 90bf
00000240: 2547 36bf fbb7 843f a486 9e3f d946 46be
00000250: 0bca 493f c676 e9be 3455 88be 696a a43f
00000260: 913f 0c40 8065 ce3e b823 26bf e7fc 633f
00000270: e29c a73e d1b7 17be 58d7 e83f f13a 7c3e
00000280: fe40 73be 570f 3cbd 8628 cebe e913 27be
00000290: 27bd 4bbf 5665 82bf b7f8 223f c597 9a3f
000002a0: deb5 923f e9a8 97bf eaea 7cbf d243 09bf
000002b0: 352d d1be 4670 b6bf 58b3 55be d4f9 20bf
000002c0: 1fd1 2cbf 2d08 54be 5e3b 373f 9793 f2bf
000002d0: f9de 31bf e30e edbe f1c7 bf3e 5757 f2be
000002e0: eecf a43f 1b56 1abf 5f7c d53f 91d9 c7be
000002f0: b767 773f 512e 65be 336c 99bf c380 abbf
00000300: 1ab4 15c0 3ac9 7e3f 3df4 f23f 0bc7 ddbe
00000310: bb96 e6be 9cd8 cb3f b145 d3bd bbe8 3140
00000320: 8536 3a3f 12d3 c4be cadd 7e3f 97f7 b13f
00000330: cb4d 40bf 3d5a 643f 58bf fd3d 4d73 93be
00000340: 536b 003f a357 7c3f 15eb 00c0 9d09 f5be
00000350: 30c1 493e 2d79 34be 47c6 f53e 2003 abbf
00000360: 94d3 3ebf 5edb 823e 5654 4640 e179 90be
00000370: ee9d dd3f 0c4f d6be 938b 853c b0ed 9e3f
00000380: 2307 04bf 1d33 a2bf f987 d43f 5508 9e3f
00000390: 16f7 c33f caa5 6bbe 8f6d 873e 5886 6e3f
000003a0: 387b 2a3e 9352 fb3f 5efd 493f 7ed2 c13f
000003b0: 1c3d a53f a684 f63e bda3 a93e 1deb b63f
000003c0: 3ffa 963e ac5c c2be a859 313f e3c4 4f3f
000003d0: cf53 1c3f 5d70 d2be c9c7 203f 7563 eebe
000003e0: 4061 d53e 7d07 38bf 8e77 e73f 469d cb3e
000003f0: 7634 583f 86c8 14c0 4d15 1abf 5599 5bbf
0.84970933 0.9910069 -1.0472932 1.6465564 -0.89152825 -1.889051 -0.69550675 -0.46616122
0.6677406 0.7496524 -0.62332696 -0.045583174 0.34331784 0.7442981 1.7757607 0.033277348
-1.0312282 -0.46160957 -1.3812366 0.34885746 -0.8588271 -0.86886626 -1.4417708 0.22824648
-0.2210591 0.24640097 0.9458985 -1.1728668 -0.29140395 -0.11447596 0.2601765 1.065017
-0.4298867 -1.014174 0.08759798 -1.398425 1.2160686 1.2511886 -0.113719545 0.6704554
-0.18227799 1.7483336 0.7946599 0.9537507 -0.48415217 -2.3095515 0.8056551 0.14276697
-0.59234095 0.3320643 1.1119369 -1.9039192 -0.16164948 1.0428238 -0.35456625 0.9381945
-0.6609801 -0.07219924 0.42457455 -0.5718525 1.1054411 0.1048695 -1.8762841 1.5011314
0.19893369 0.5724347 -0.14240217 -0.3155536 -0.5544669 1.311238 0.15077269 1.0179183
-0.07659877 -1.0358429 -0.9783932 -0.34868082 -0.48018757 0.36902133 -1.7916765 -1.7834122
-2.0696542 -0.91813385 0.89021814 0.76740724 2.087592 1.4725592 1.9012719 -0.06419275
1.4859028 0.06040207 0.18714128 0.23356393 -0.46412042 0.45042253 1.4347968 -0.0761146
-0.14131272 1.2934986 -0.7941462 -1.3860291 0.014158179 -1.1299497 -0.6413089 -1.6370889
0.32035422 0.4347949 -0.53749657 1.1726431 -0.1254747 -1.6471457 -1.3504477 -0.04205729
-0.7315395 -0.93672794 1.1020037 1.1175442 0.20512316 -0.4638153 0.29790485 -0.19137962
0.7029817 0.4021124 0.14257927 0.65911734 0.39148802 -0.113938965 -0.24669296 -1.6779946
0.44027907 -0.49347496 -0.016300848 -0.4018886 0.40586868 0.41928536 -0.77277076 0.85047597
-0.9631631 -0.9851385 -1.3024677 0.663762 -0.72188157 0.025955856 -0.14574419 -1.1254965
-0.7120231 1.0368646 1.2384839 -0.19362964 0.7882392 -0.4559843 -0.26627505 1.2844974
2.1913798 0.40311813 -0.6489825 0.89057773 0.3273688 -0.14816214 1.8190718 0.2463186
-0.23755261 -0.045913067 -0.40265292 -0.16316189 -0.795855 -1.0187175 0.6366076 1.2077566
1.1461751 -1.1848422 -0.9879595 -0.5361911 -0.40854803 -1.4253013 -0.20869195 -0.6288121
-0.67506593 -0.20706244 0.7157496 -1.8951291 -0.69480854 -0.4630042 0.3745723 -0.4733226
1.2875955 -0.60287637 1.667858 -0.39033177 0.9664263 -0.2238095 -1.1986145 -1.339867
-2.3391175 0.995258 1.8980786 -0.4331592 -0.45036873 1.5925479 -0.10316027 2.7798297
0.7273944 -0.38442284 0.99557173 1.3903683 -0.751187 0.8920019 0.123900115 -0.28798905
0.50163764 0.98571223 -2.0143483 -0.47858897 0.19702601 -0.1762435 0.48002836 -1.3360329
-0.7454159 0.2555799 3.0988975 -0.28217986 1.7313821 -0.41857183 0.016301906 1.2416286
-0.5157339 -1.2671849 1.6603996 1.2346293 1.530978 -0.23012462 0.26450774 0.9317374
0.16648567 1.9634575 0.7890223 1.5142362 1.2909274 0.48148078 0.33132735 1.4290501
0.29487798 -0.37961328 0.6927743 0.811598 0.6106538 -0.4110135 0.6280485 -0.46560255
0.41675758 -0.71886426 1.808336 0.39768428 0.8445505 -2.324739 -0.6018875 -0.8578084

residual_block1.conv1.weight f4 [64, 64, 3, 3]
00000000: 2d62 c7bc 681c c43c 407d 9cba 5311 b9bc
00000010: 0fe9 2f3d f2d6 933c f503 c2bc e041 a73c
00000020: c968 7fbc 68f3 d53b 985c 253d a981 2a3d
00000030: c6ae 113d c6f1 163d 2de0 1dbd 99b4 d6bc
00000040: f1b7 9ebb 8aca 06bd 3642 b2bc be64 ebba
00000050: 6a84 41bc 3f56 e83c 1eed cb3b 3b33 bcbc
00000060: 8244 263d 934c eabc ed3e 21bd 0248 8fbc
00000070: eec7 0d3a 277b 153d 04c2 50bc ebf4 e63c
00000080: 819e 2a3d e4e5 c6bc 29a4 0d3d fa41 193b
00000090: b302 6b3c 9edd 3cbd 0a37 36bc 1228 e8bc
000000a0: 0273 1f3c fd64 af3b 503d 5e3b 532d 03bc
000000b0: 8d19 cbbc 87cb 753c 2458 ce3c b0ef e4bc
000000c0: 8b6d f2ba d84b d7b8 f492 393d bc59 14bc
000000d0: 3886 0bbd fcf8 933c baeb f43a f7b9 e2bc
000000e0: c3dc db3b 1f9e 0fbc 36af 3e3c cf12 cb3b
000000f0: da9e 833c df94 c73c 241e 3f3c 3583 01bd
00000100: e0bd 873c c0ec 343d ec61 edbc 5581 2f3d
00000110: 4b65 3ebc 1535 203d f205 2b3c 9104 2ebc
00000120: 534e 02bd 7dfb 5c3c ba3f 39bc 029c 543c
00000130: e5d9 853c cc20 673c feca 963c fec1 703c
00000140: 2b23 133d b155 f2bb 53e1 08bc 0ef0 a8bb
00000150: 7c9a 2f3d 69e9 93bc 3904 f73c 9efd 123a
00000160: 96a9 2bbb 885e 51bc 38c4 a3ba 9f74 c4bc
00000170: 1bf7 0abd 66e7 e63c 0830 a4bc 428b f63b
00000180: 3d56 093d 2084 c2bc 1ed7 283d c884 18bd
00000190: a22f ae3c 3baa ccbc 3dbd 643c 0864 2a3c
000001a0: 1aed 0abd ea6a aa3a cdc8 22bd 356b dabc
000001b0: e1fa 38bc 3c45 a3bc 7128 ad3c 9be0 183d
000001c0: b232 223d 2ca4 ab3c fc4a e53c 6403 023d
000001d0: e560 21bd 6055 adbc 3b52 913a 1ab3 a33c
000001e0: 451d 9ebc ec38 203c 41a4 acbc 5960 083d
000001f0: 80bf b93c 6fd5 7cbc da1f dabc 9f31 25bb
00000200: d373 c7bb 8b38 4c3d 9623 a23b c8f9 4cbd
00000210: 76cf 493c 1333 fb3b a94f 163c 1e8f f0bc
00000220: 1aab ec3b e604 2f3b 4215 7c3c 4e32 023d
00000230: 68a6 813c 998e 8a3c 7558 10bd 9a0e 203d
00000240: 2036 963c 9272 b3bc f828 c3bc 9d70 d43b
00000250: 96de 283d 02b7 24bc f4ff a2bc 1c67 f0bc
00000260: 493c cf3b c007 c83b 712e 03bd ab94 093d
00000270: eba8 ba3b 5fe6 213c a6bd 06bb 3329 edbc
00000280: 2307 f53c 7ca0 97bc a2a7 0e3d 5a5f 08bd
00000290: 35eb e6bc 3b44 c73b 41fd afbc dfbc e1bb
000002a0: 6176 283c 43b7 733c fb99 a1bc 4375 973c
000002b0: 83f3 b93b ddce ec3a 4e81 f73c 1cf7 19bd
000002c0: 8bcb 99ba b396 e63b 71d5 143d e836 cc3c
000002d0: c025 0a3d c078 433c 2e17 243d 0be3 12bd
000002e0: 04d3 97bc 23c3 fa3c 731a a83b a9a0 03bd
000002f0: 99d4 3cbb 58f3 b6bc 5b41 c1ba e049 20bd
00000300: e4fa 4c3b fb9e 8bba 19a7 213d c5fb 893c
00000310: 2424 073c 3046 1a3c 6d1f 2a3b 7b96 82bb
00000320: f623 d2bc 30cd 2e3d e8cf 253d d547 4f3b
00000330: 146d 78bc ed28 de3c 1bcc aa3c 2c98 8bbc
00000340: 9333 183d 7093 0b3c 4969 203d ee16 fcbc
00000350: 7a71 a5bb 3e2d 1cbd 0a8e 813b 5c58 bbbc
00000360: f27d c23c de40 9ebc 5086 0e3c 720f f6bc
00000370: 5be7 ae3c 13f5 fcbc 51ca 35bd c749 2bbd
00000380: 44a0 b7bb cdfe 483a f746 7ebc d9d3 bdba
00000390: 11a9 1c3d 88a4 2fbd 0825 d3bc 02b1 9cbc
000003a0: 0683 9dbc 0f7a c4bc fd8f f1bc ce9e 183d
000003b0: f74a b6bc 367d 733c d6b2 3b3d 0a9e 1c3d
000003c0: ba54 dc3c 80d6 293d 2cc0 2d3d 1211 a03c
000003d0: 0b4d c2bc 4be5 e7bc 5232 7bbc 8323 d73c
000003e0: 0832 073c 61c0 99bb d55b f83c e6b0 0e3c
000003f0: cdf5 a03b 0164 2f3b c2fa bf3c f86d 4abc
-0.024338806 0.023939326 -0.0011939183 -0.022591269 0.04294687 0.01804683 -0.023683527 0.020417154
-0.015588948 0.0065292604 0.040371507 0.04162756 0.035567068 0.036851667 -0.03854387 -0.026209163
-0.004843705 -0.032908 -0.021760087 -0.0017959101 -0.011811355 0.028361438 0.006223335 -0.022973647
0.040592678 -0.028600967 -0.03936665 -0.01749039 0.0005408515 0.0364944 -0.012741569 0.028192958
0.041655067 -0.024279542 0.034580383 0.0023385272 0.014343905 -0.046109788 -0.011121521 -0.02833942
0.00973201 0.005352615 0.0033911057 -0.008006412 -0.024792457 0.015002138 0.025188513 -0.027946323
-0.0018495781 -0.00010266126 0.04530616 -0.0090545975 -0.034063548 0.018063061 0.0018685975 -0.027676566
0.0067096665 -0.008765726 0.011638453 0.0061973105 0.016066957 0.02436298 0.011664901 -0.03161927
0.016570032 0.044171095 -0.028977357 0.04284795 -0.01162083 0.039113123 0.010438429 -0.010621206
-0.031812977 0.013487694 -0.0113066975 0.012976648 0.016339252 0.0141069405 0.018407341 0.014694689
0.03592221 -0.007395469 -0.008354503 -0.00515557 0.042871937 -0.018055635 0.03015338 0.000560725
-0.002619361 -0.012778886 -0.0012494391 -0.02398139 -0.033927064 0.028186511 -0.020042434 0.007523925
0.03352951 -0.023744643 0.041220777 -0.037236005 0.021262947 -0.024983516 0.013961134 0.010399826
-0.033917524 0.0013001834 -0.03974228 -0.026662448 -0.011290283 -0.019930474 0.021137448 0.037323575
0.039599128 0.020952307 0.027989857 0.031741515 -0.039399046 -0.021158874 0.0011087129 0.019982863
-0.019301066 0.009779196 -0.021074416 0.03329501 0.022674322 -0.015431746 -0.026626516 -0.0025206578
-0.0060868054 0.04985861 0.00494809 -0.050042897 0.012317529 0.0076660006 0.009174266 -0.029365119
0.0072225453 0.00267058 0.015385928 0.031786256 0.015826419 0.016913699 -0.03524061 0.039076425
0.018336356 -0.021905217 -0.023823246 0.006483151 0.0412279 -0.010053398 -0.019897439 -0.029346041
0.006324325 0.0061044395 -0.03202671 0.033589046 0.005696406 0.009881585 -0.0020559817 -0.02895031
0.02991063 -0.018509142 0.034827836 -0.03329406 -0.028188327 0.0060811318 -0.021483066 -0.0068889703
0.01028213 0.014875236 -0.019726744 0.018488532 0.005674781 0.0018067021 0.030213024 -0.037589177
-0.0011733634 0.0070370077 0.036336366 0.024928525 0.033727407 0.0119306445 0.04006117 -0.035861056
-0.018533237 0.030610627 0.005130106 -0.03213564 -0.0028813242 -0.022332832 -0.0014744209 -0.039132953
0.0031277472 -0.0010652238 0.039465997 0.016843686 0.008248363 0.009416148 0.0025958673 -0.003985224
-0.025651913 0.04267615 0.040481478 0.0031628509 -0.015162725 0.027119124 0.020849278 -0.017040335
0.03715856 0.008519039 0.039162908 -0.030772652 -0.005048928 -0.038129084 0.0039537 -0.022869281
0.023741696 -0.01931804 0.008699015 -0.030036662 0.021350553 -0.03087858 -0.044382397 -0.041818406
-0.005603822 0.0007667363 -0.015519849 -0.0014482691 0.03824717 -0.04288152 -0.025774494 -0.019127373
-0.019227516 -0.023983983 -0.029487604 0.037260823 -0.022252543 0.014861396 0.045824848 0.038236655
0.02689587 0.04146433 0.042419598 0.01953939 -0.023718378 -0.028307578 -0.0153318215 0.02626205
0.0082516745 -0.004692123 0.030317226 0.008709168 0.0049121142 0.0026762488 0.023435 -0.01235532

residual_block1.conv1.bias f4 [64]
00000000: 9657 373c 83f9 333d af29 04bc fe1d 843b
00000010: 5027 8e3c 592b 213d ce14 fc3c bf7e 1a3d
00000020: 3e40 273c 8896 223c b895 70bc 2e2d 45bb
00000030: 72d7 ec3c bea3 3cbb 1e93 173d 83d5 9cbc
00000040: ccc1 81bc dfb0 093d 7a4a 9cbc 09f0 a13c
00000050: 5c22 24bd e0fe 65bc e76d 203d a1f5 85bc
00000060: 6e38 bb3c 4226 c23c ae32 e7bc 2e73 1b3c
00000070: 5fb4 ad3c c1cb ebb9 f5ce 073d 2132 21bb
00000080: c75c 643b 9960 9b3c ca9a f2bc daf2 1b3d
00000090: 9bc4 0ebd ef08 6fbc 1110 21bd a6dd 00bd
000000a0: 1fea ce3a f4b3 48bc 5a4c cdbc 8358 24bd
000000b0: 72d8 a33a e256 a5bb f4d4 99ba 2224 14bc
000000c0: 33a4 74bc 217b ec3c 9339 ab3c abf6 d23c
000000d0: 26bb dbbc e8a2 c43c b6bf 113d e353 cf3b
000000e0: 13ce d5bc cd28 a73c 8eb1 e3bc 45ef ab3c
000000f0: aa76 263d 58e0 bcbc 2b8d 13bd 9608 47bc
0.011190316 0.043939125 -0.008066579 0.0040318957 0.01735273 0.03934798 0.03077164 0.03771853
0.010208188 0.009923585 -0.014684133 -0.0030086744 0.028911326 -0.0028784121 0.037005536 -0.01914478
-0.01583948 0.033615943 -0.019078482 0.019767778 -0.04007183 -0.014037818 0.03916731 -0.016352477
0.022854056 0.023699883 -0.028222408 0.00948791 0.021204172 -0.000449745 0.033156354 -0.002459653
0.0034845339 0.01896696 -0.029614825 0.0380734 -0.034855466 -0.014589532 -0.039321963 -0.03146138
0.0015786326 -0.012249935 -0.025060821 -0.040123474 0.0012500419 -0.0050457576 -0.0011736439 -0.009041818
-0.014931726 0.028867306 0.020901477 0.025752386 -0.026822638 0.024003461 0.03558322 0.0063271387
-0.02609924 0.020405198 -0.027794626 0.020988116 0.04064051 -0.023056194 -0.0360233 -0.012148043

residual_block1.conv2.weight f4 [64, 64, 3, 3]
00000000: d1c8 113d ea08 743c 7cea 813c 2fbc c63c
00000010: a66c febc 75ae 93bc fe2c 9ebb 007c 053d
00000020: 4e17 4cbc a594 28bb 4675 82bc da58 b5bb
00000030: b1b2 583c de6c ab3c 60e6 9dbc 5cbd 113d
00000040: 2363 0dbb 5783 96bc a0ef 1dbb 1c15 a6bb
00000050: d1a7 013c 8710 bd3c 54b6 b5bc 87a5 22bc
00000060: 8074 fc3c 83fe c83c 6fac 22bc dff1 1c3d
00000070: 5e23 9fbc dfb0 e03c e280 e03c ad4c c0bc
00000080: 432a 343d bb36 aa3c 66ef 3c3d c3fe 623c
00000090: 3b21 433c 115b 9e3b c31d 9f3c 59bc a839
000000a0: 3a6b 0cbd fc25 8f3c 4868 a93b 5b80 363c
000000b0: 8ee0 0f3c 86b4 f7bc 3105 903a 7d69 033c
000000c0: d60a 3bbc a996 18bc ee9a 9bbb d244 ddbc
000000d0: a150 d63b 6d84 2cbc de77 0b3c 5f21 0e3c
000000e0: 64cb cebc 6483 fc3c 8d33 293c 58fd 23bd
000000f0: 5750 2bbd c6f8 913a 9c34 2cbd 0d0a 8cbc
00000100: af39 153d 6f51 993c 0d8f 473c 4fe1 1b3d
00000110: 8b41 3a3d e29d 1fbc edea 6a3d 196e 5fbc
00000120: da7c 3fbb acad 5abd 77e7 ebbb e390 f6bc
00000130: c883 dfbc 4717 b6bc f16a 66bc 225c 6c3c
00000140: ca37 703c b513 023c 4cb8 203d 329f 353d
00000150: f2ea 9fbb feed cf3c 33e2 1bbc e424 3cbd
00000160: ce51 093d 4395 24bc 239b 9f3c 6c50 623b
00000170: 4cf2 06bc 4ca4 86bc 6f04 e03c d6f7 db3b
00000180: a555 84bc c22f a23c 65d0 58bd aabb 13bd
00000190: 8506 b7bc b56e 233d c979 5bbb eb13 0a3d
000001a0: 1781 fe3c dd53 eabb 31ac 35bd b031 42bd
000001b0: b258 8fbc f902 bf3b 8b60 303d 5f95 133d
000001c0: 7ab6 f43b e45d eebc a91c 27bd e2f7 2fbd
000001d0: 0d5e 8cbc c7a4 ad3b 0cdb 27bd 17e3 65bb
000001e0: 54e1 fc3c b0ba 82bc 7b67 263c 885a b13c
000001f0: e8d3 87bc 3c95 a33c a8f8 1abd a703 b43c
00000200: 1e92 c7bb 1345 283d e946 e1bc ecf9 9ebc
00000210: 17e8 b53c 8cfe 15bd 9b8c ec3b 4357 233a
00000220: 483d 183d f732 963a 6990 873c 2e7b b2bc
00000230: 9d26 10bd bf7b 6a3c 56f5 0cbc d283 083d
00000240: 1b81 183d 1048 db3c 1cc5 e53c a492 203d
00000250: 28a3 d3bb a193 823c 1d57 6cbc 3e93 083d
00000260: c21d 5cbb 4427 9a3c c3af b43c c0b7 d33b
00000270: 0ab2 0f3d 17ef ccbc 9809 b53c 898f 9dbb
00000280: c5d6 a13c 71c5 2ebd ae39 48bc 51c1 fb3c
00000290: 5b2e 3d3d df9f b8ba 4161 953c 8744 a5bc
000002a0: a5e6 35bb 1316 f9bc d319 b93b 7dcf 663c
000002b0: f02a f43b 5f47 61bb 8aab 833c e5b5 e43b
000002c0: 9f03 00bd 7bf0 a03a b866 043d 73b9 ecbc
000002d0: bf91 d1bb 9dc3 0bbd 05df b03c d8ea 25bd
000002e0: 5ebb a3bc f036 2dbb aaa2 2bbc 725b c33c
000002f0: 51bc 5cbc 6e5d d2bc f037 033d db9d 063b
00000300: 711e 3a3d 2dcc 0bbd 69ba 523d 0a3b 0d3d
00000310: 96c2 383d ecad 253d 4b2c bc3c bf6d 913a
00000320: 40ef 483a c243 1cb9 7bf2 313d d005 a23c
00000330: 8aaa 5637 1479 0dbc 00e0 253d 8091 64bb
00000340: 2b18 93bc a11c 083d c002 e7bb 18a3 94bc
00000350: e8c9 8a3c 9b8b be3b dbbf 823c bb3e 393d
00000360: 6014 dabc 1786 9e3c 31c5 e23c c1c1 b93c
00000370: 851d 1a3d 6347 013d 6e37 b33c 4263 5b3c
00000380: 287c 34bd b34f 21bc 1518 cc3c 6b6e babc
00000390: a260 c83c 6db8 ca3c a766 273c f5d7 b2bb
000003a0: 9750 ce3c c23f 89bc 45ac 49bc cee4 ea3c
000003b0: 864a 79bb 49a9 de3c 1b5a b8bc 9962 22bd
000003c0: 5123 3ebd 0f9d 173c b5ee 1d3c c201 cfbb
000003d0: 0e41 47bc f78d 9cbc debf 683c 66f3 743c
000003e0: 1c94 e5bb abe8 1f3c 1b16 a43c 610c 2b3c
000003f0: a560 45bd 6ddf c63b 16d9 a43c 8323 0bbd
0.035591904 0.014894703 0.015858881 0.024259655 -0.031057667 -0.018027524 -0.004827141 0.03258896
-0.012456728 -0.0025723365 -0.015925061 -0.0055342736 0.013226197 0.020925935 -0.01927489 0.035580978
-0.0021573983 -0.018373175 -0.0024099126 -0.0050684344 0.007913546 0.02307917 -0.022181667 -0.00992716
0.03081727 0.024535423 -0.009928807 0.038316604 -0.019426044 0.027428089 0.027405206 -0.023474062
0.043985616 0.02077805 0.046126746 0.013854685 0.011909778 0.0048326333 0.019423371 0.00032183787
-0.034281947 0.017474167 0.005169902 0.011139001 0.008781565 -0.030237447 0.0010987875 0.008020756
-0.011416158 -0.009313264 -0.0047486937 -0.027010355 0.0065403734 -0.01052962 0.008512465 0.0086749485
-0.025243469 0.03082437 0.010327232 -0.04003653 -0.041824665 0.0011136762 -0.04204236 -0.017094636
0.036431964 0.018715588 0.012180102 0.038056668 0.045472663 -0.009742232 0.05735295 -0.013637089
-0.0029218704 -0.053388283 -0.0071992236 -0.030098384 -0.027284518 -0.022227896 -0.014063583 0.014426263
0.014661739 0.007939269 0.03923826 0.044341274 -0.0048803026 0.025382038 -0.009514379 -0.04593362
0.03352528 -0.010045352 0.019483155 0.0034532798 -0.008236479 -0.016435765 0.027345864 0.006712894
-0.01615412 0.019798163 -0.052933116 -0.036067642 -0.022341976 0.0399005 -0.0033489338 0.0337104
0.031067414 -0.0071511106 -0.044353668 -0.047410667 -0.017498348 0.005829212 0.04306082 0.036031123
0.007468042 -0.029097505 -0.040798817 -0.04296101 -0.01713469 0.005299184 -0.040980384 -0.0035077983
0.030869164 -0.01595816 0.010156508 0.021649614 -0.016580537 0.019968621 -0.037834793 0.021974398
-0.0060904166 0.0410815 -0.027499633 -0.019406281 0.022205396 -0.036619708 0.00721891 0.00062309596
0.037167817 0.001145928 0.016548352 -0.021787252 -0.035193074 0.01431173 -0.0086034145 0.03332884
0.0372325 0.02676776 0.02804809 0.039202347 -0.0064586587 0.015939536 -0.014425066 0.033343546
-0.0033587073 0.018817551 0.022056466 0.0064611137 0.0350819 -0.02501635 0.022099301 -0.0048083705
0.01975573 -0.042668764 -0.012220783 0.030731829 0.046186786 -0.0014085731 0.01823485 -0.020174278
-0.0027755883 -0.030406034 0.0056488304 0.014087555 0.0074514076 -0.0034374816 0.016073007 0.0069796913
-0.031253453 0.00122787 0.032324523 -0.028897023 -0.006395548 -0.0341221 0.021590719 -0.040507168
-0.019986805 -0.002643045 -0.010475794 0.023847315 -0.0134726325 -0.025679316 0.032035768 0.0020540867
0.045439187 -0.034130264 0.051447306 0.034480132 0.045107447 0.040449068 0.02297034 0.0011095329
0.00076650456 -0.00014902561 0.043444138 0.019778162 1.2795101e-05 -0.008634824 0.040496826 -0.0034876764
-0.01795586 0.033230428 -0.0070498884 -0.018144175 0.01694198 0.005814982 0.015960624 0.04522584
-0.026621044 0.019351048 0.027681919 0.022675397 0.03762581 0.03156222 0.021877017 0.013390364
-0.044063717 -0.009845662 0.024913827 -0.02275773 0.02446014 0.024746144 0.010217345 -0.005457873
0.025184913 -0.016754035 -0.012309139 0.028673556 -0.0038038804 0.02718033 -0.022503903 -0.03964481
-0.0464204 0.009253754 0.009639432 -0.006317348 -0.012161506 -0.019110663 0.014205901 0.014950609
-0.0070061814 0.009760062 0.020030072 0.010439963 -0.04818787 0.006069115 0.020123046 -0.033969413

residual_block1.conv2.bias f4 [64]
00000000: 8c77 86bc 13ea 0cbc d14d f6bc 7d7a 373d
00000010: 4e90 68bc 69b5 963c cb41 2abd 8592 bf3c
00000020: eb5b 123a 1a55 a237 7373 15bd c8ca edbc
00000030: c806 d2bb 3afd 203d fd9e 0fbc 999c a13c
00000040: 662c f3bc 81ec 2c3d b2db c63c 382c ee3c
00000050: 837f d1bc 07ee 2e3d e733 883c bcd9 183b
00000060: fa8a 02bd 7985 21bd ee17 fc3b c248 c63c
00000070: f9b3 baba 07c8 a7bb 4fdb e6bc a5ca 333d
00000080: 0aa3 95bc 8b9a 11bd eb63 c7bc b601 c83c
00000090: 3d24 b93b 79fe 863c 78e6 8dbc 7e69 93ba
000000a0: 6660 c63b 2095 9cbc 6b3d be3c b437 fc3b
000000b0: 36b2 32bd 1f5c 893c 3e9a 003c 8346 17bd
000000c0: 358f 093d 0b57 d8bb bc3a 20bd e057 0abd
000000d0: 7ecf 14bd 55f6 2e3d 4682 79bc 56d4 01bd
000000e0: 1265 a3bb ec0b b6bc d1b7 6f3a f7e1 683c
000000f0: 7561 8b3c 429b ae3a 5d98 aebc 2f27 c83c
-0.016414426 -0.0086007295 -0.030066403 0.04479455 -0.014194561 0.01839705 -0.04156665 0.023385296
0.0005583155 1.9351533e-05 -0.036487054 -0.029027358 -0.0064095 0.039303996 -0.008765933 0.019727992
-0.029684257 0.042217735 0.02427468 0.02907382 -0.025573498 0.04270747 0.016626311 0.002332314
-0.03187082 -0.03943393 0.0076932823 0.024204616 -0.001424431 -0.0051202807 -0.028180746 0.04389443
-0.01826622 -0.035547774 -0.024339637 0.024414878 0.005650072 0.016478764 -0.01732181 -0.0011246649
0.006053972 -0.019114077 0.023222646 0.00769707 -0.043626986 0.01676756 0.007849274 -0.03693248
0.03358384 -0.006602173 -0.039118513 -0.03377521 -0.036330692 0.04271539 -0.0152288135 -0.03169664
-0.0049864138 -0.022222482 0.0009144517 0.0142140305 0.017014245 0.0013321417 -0.021312887 0.024432747

residual_block2.conv1.weight f4 [64, 64, 3, 3]
00000000: fabd 9abc 7dfd 823c bab8 afbc 3ad4 0a3d
00000010: f0db 023d dbce dbbc adc2 23bd 060a bcbc
00000020: b611 a7bb bc09 e13c 1d75 5f3c 86a2 c13c
00000030: 1e8d c53c 72f7 283c 9f58 c1bc a103 10bd
00000040: cb22 4c3b 550c f13c ac40 f23c 558c 27bd
00000050: dd69 a73c de4e a6bc 40b7 28bd 848f 0dbd
00000060: 4bd1 64bc 66b0 3d3b df80 ba3c 421c aebb
00000070: f247 b63c 9a5e 1c3d 128e cfbc 13ef 8d3c
00000080: d51a a9bb eeeb 373d f9ce 203a cc03 633c
00000090: 1e00 d7bc 23a8 84bc 455d f9bc 9f36 c9bc
000000a0: 7c44 693c 7171 ebbb b450 bd3b 8c61 f63c
000000b0: 5f35 04bd 6bd8 1a3d 14eb d03b 04db f23c
000000c0: e487 0fbd 92d7 223d c507 cfbc 2724 0c3d
000000d0: 3132 77bc a2c5 e9bc f0f1 e23b e4d5 06bd
000000e0: 9693 c93b fb2d 0fbd 5b38 3cbd 6f7c 10bc
000000f0: d054 123d 1167 c6bc 7307 d9bc dfcf bdbb
00000100: a2ac 2dbd f032 e33a 49b1 15bd 3639 5d3b
00000110: 71c2 14bd a74b 55bd 9dd3 de3c 6fbe ab3b
00000120: 104d 94bc 6e78 35bc 9bb2 c7bc f68f 233d
00000130: 67f8 523d 4e5b 16bb 74f9 e73c d353 083d
00000140: be2d 253d cfa1 ba3c 9571 86ba 3211 20bb
00000150: 0bd9 21bb ad21 11bc 95bc 4fbc 2fca 473c
00000160: d09c a93c 4758 f5bc ebc9 60bc 368d d6bc
00000170: 2188 d2bc fc6f 14bd e434 febc 4995 9a3b
00000180: 36d4 203d 3fed 07bd 169b 453c a99d e8bc
00000190: 9658 193d 25cd 203d 2aa4 16bd 8dcf dd3a
000001a0: f33a 05bd 50ed 4dbc 0721 003c 1d05 683c
000001b0: 54dc 43bd 97e8 a5bc 26c9 283d e66b 4e3c
000001c0: 46a6 0c3d 02aa 1ebb 5664 3fbd cd80 42bd
000001d0: 3275 343c cbd5 e43c 1800 f0bc ced6 9d3c
000001e0: 705e 203d acd3 f0bc dda8 58ba 576c 97bb
000001f0: 48c6 4ebc fc1e 58bb 5824 163d 6b35 203c
00000200: 7c63 b03c 2dc6 10bd 7d61 21bd 9175 8b3c
00000210: 0f5d 5f3c 1015 713c 7c8a 973c c041 f93b
00000220: 047e 9bbc e949 0e3d f795 f8ba 7d4f e2bc
00000230: 761b 0a3d aa8f 50bc a533 0abc e48f 0f3d
00000240: 8915 18bd 9f64 863c bf4d fe3c 2050 5eba
00000250: 0807 cf3c 2286 633c 2a5c 223b 4a25 0cbb
00000260: 7a0b a53c 0c6f c3ba 986c 9ebc f8be 24bd
00000270: 5369 0fbd e254 23bd f75a 883c 59c5 55bb
00000280: 32e7 20bd b2d5 03bb c48b b2bc fd88 23bd
00000290: f388 c93c 8dcc 1f3d 9d4f 8c3b 8412 d1bb
000002a0: 091f 223c de16 693a d8b1 2e3b 00ab e7bc
000002b0: c308 843c 9b8b 273d c6d3 61bc c3f5 123c
000002c0: 6ac4 9f3c e258 fa3c df9f fe3c 8b0c c93c
000002d0: 6abf b73c e568 c8bb 0e3e 8dbc c2e8 bf3c
000002e0: 7076 243d 1a34 f63c 819d 16bd c88f adbb
000002f0: e7a4 173d ea8e 45bc cb35 44bb dcf9 433d
00000300: 7d28 9fbc b7b7 483d d639 143d bf2b b1bc
00000310: 71ab c7bc 5042 f5bb eba4 123d 2b8e 243d
00000320: 8759 77bc f695 e73c 350c a63c e044 093d
00000330: 2b67 e3ba 000c e03c 463d 253d ba21 60bb
00000340: 4aab 00bd 6e2a 003d 2d5b 8e3c 3108 2fbd
00000350: c550 3dbd c28f 1ebc 83ba 12bd c461 ccbb
00000360: 85c0 c3ba 469d 18bc 309a e1bc 77f7 543d
00000370: d811 95bc f2eb 16bc 85a5 143d e60b 803b
00000380: 1bfa f3bc 9e46 033d 1187 28bd a14e bfbc
00000390: c864 02bc 153b bf3b ad3c 853c 599b e23c
000003a0: 0387 0cbc a1e4 b33c 99a5 8b3c 48c2 103d
000003b0: 8557 123c dfba 22bd ee28 043d 885f e43c
000003c0: 6203 0a3d 7772 b1bc 628b a83b 083a 69bb
000003d0: 22ac 0cbc 6403 a0bc 8a8d 163d 4b7c 5bbc
000003e0: fdf1 813c 268b a03b bca9 0ebd 87f3 013d
000003f0: 725b 26bd bd3d 8abb aaf6 d83c 3014 18bd
-0.018889416 0.015990013 -0.02145039 0.0338938 0.03194803 -0.026832035 -0.03998058 -0.022953998
-0.005098547 0.027470462 0.013638762 0.023637068 0.024115141 0.010312902 -0.023601828 -0.03515971
0.0031148668 0.029424826 0.029571854 -0.040905315 0.020436222 -0.020301279 -0.041190386 -0.034560695
-0.013965915 0.0028944253 0.022766529 -0.005313427 0.022251103 0.038176157 -0.0253363 0.017325914
-0.0051606693 0.044902734 0.0006134357 0.013855886 -0.026245173 -0.016193455 -0.030439982 -0.024562178
0.014237519 -0.007185154 0.005777443 0.03007581 -0.03227746 0.03780405 0.0063756797 0.02964545
-0.035041705 0.039756365 -0.02527226 0.034214165 -0.01508765 -0.028536621 0.006925814 -0.032918826
0.006151627 -0.03495596 -0.045952182 -0.00881873 0.035725415 -0.024219068 -0.02649281 -0.0057926024
-0.042400964 0.0017333906 -0.036546025 0.0033756024 -0.036318246 -0.0520741 0.027200514 0.0052412073
-0.018103153 -0.011076076 -0.024377158 0.039932214 0.051506426 -0.0022942605 0.02831719 0.033283066
0.040326826 0.022782234 -0.0010257239 -0.0024424312 -0.0024696018 -0.008858127 -0.012679239 0.0121942
0.020704657 -0.02994932 -0.013720016 -0.026190381 -0.025699677 -0.03623961 -0.03103108 0.004717503
0.03926488 -0.03318524 0.012060901 -0.02839549 0.037437998 0.03925814 -0.036777653 0.0016922817
-0.03252692 -0.012568787 0.007820374 0.014161375 -0.047817543 -0.020252509 0.041207455 0.012598967
0.03433826 -0.002421022 -0.046726547 -0.047486115 0.01101427 0.027933976 -0.02929692 0.019267466
0.039152563 -0.029397808 -0.00082649087 -0.0046210694 -0.012620516 -0.0032977453 0.036655754 0.009778361
0.021531813 -0.035345245 -0.039399613 0.017023833 0.013633027 0.014714494 0.018498652 0.007606715
-0.018980987 0.034738455 -0.0018965591 -0.027625794 0.033717595 -0.012729565 -0.008435165 0.035049334
-0.037129913 0.016405402 0.031042932 -0.00084805675 0.025271907 0.01388696 0.0024774172 -0.002138453
0.020147074 -0.0014910414 -0.01933889 -0.040221184 -0.035012554 -0.039875872 0.016644938 -0.003261885
-0.039282985 -0.0020116386 -0.021795161 -0.039925564 0.024601435 0.039013434 0.0042819516 -0.006380381
0.009895095 0.0008891652 0.0026656296 -0.028279781 0.01611746 0.040904623 -0.013783401 0.008969727
0.019502837 0.03055996 0.031082092 0.024542114 0.02243014 -0.00611602 -0.017241504 0.023426417
0.040152013 0.03005414 -0.0367713 -0.005296681 0.037022498 -0.012057999 -0.002993929 0.047845706
-0.019428486 0.04900333 0.03618797 -0.021627305 -0.024373742 -0.0074847117 0.03580181 0.040174644
-0.015097029 0.02826975 0.020269493 0.03351295 -0.0017349472 0.027349472 0.040341638 -0.003419979
-0.031413354 0.031290464 0.01737746 -0.04273242 -0.046219606 -0.009677829 -0.035822403 -0.0062372405
-0.0014934695 -0.009314841 -0.027539343 0.051993813 -0.018196985 -0.009211527 0.036290664 0.0039076684
-0.029782346 0.032049768 -0.041144434 -0.023352923 -0.007958598 0.0058359005 0.016264284 0.027661966
-0.008577111 0.021959605 0.017046737 0.03534153 0.008931999 -0.039728995 0.032265596 0.027877584
0.033694632 -0.021661026 0.005143569 -0.0035587568 -0.008585962 -0.019532867 0.036756076 -0.013396333
0.01586246 0.0048994003 -0.03482984 0.031726386 -0.040614553 -0.0042187856 0.026484806 -0.037128627

residual_block2.conv1.bias f4 [64]
00000000: 68da 07bd 616c 963b aede 043c 6f83 2b3d
00000010: 3db7 573a aff3 ed3c 2283 f23c da86 3c3d
00000020: 8408 8abc f7bd 02bc 8e35 66bb 80dd 24bd
00000030: 2eda 783b 2caa 503d ca08 d33c c97f 0f3d
00000040: d7f1 fdbb f8f1 9bbb 430a efba a900 cdbc
00000050: 1a88 6dbc 3d19 003d 02f0 1b3d 2b18 fc3c
00000060: 3cf6 023d 5e76 853c 190d 4f3a d429 8ebc
00000070: 692c 0a3d c0ef 71b9 9d6e 80bb 122f f03c
00000080: fa10 6cbb 8c23 db3b f2a1 773c a50a 063d
00000090: 0b7f 2c3c 42a4 08bd ea80 0ebd be7d debb
000000a0: 897a e93b 3f57 193d 1c98 0dbd 6145 123d
000000b0: fcae 8dbc 137b b13c e9d4 393d 6830 a5bb
000000c0: 611b f73c f682 5f3b dd1d caba 2fbd 9ebb
000000d0: 8a56 c9bc 501c 1a3d dd39 0dbd e77a d53a
000000e0: e708 4f3c 7392 adbc 9f69 f3bb d82d 343c
000000f0: 0f0d 15bd d575 d93a 3956 dcbc b2bf 4c3c
-0.033167273 0.0045905565 0.008109732 0.04187339 0.0008228904 0.029046861 0.029603545 0.046027042
-0.016849764 -0.007979861 -0.0035127136 -0.0402503 0.0037971842 0.05094354 0.025761027 0.035033975
-0.007749777 -0.0047590695 -0.0018237311 -0.025024729 -0.014497781 0.03127407 0.038070686 0.030773243
0.03197311 0.016291793 0.0007898375 -0.01735393 0.03373376 -0.00023072865 -0.003919436 0.02931932
-0.003602086 0.006687587 0.015114294 0.032724995 0.010528336 -0.033359773 -0.03479091 -0.006789892
0.007125203 0.03743672 -0.03456889 0.035710696 -0.017295353 0.021665132 0.045369063 -0.005041171
0.030164422 0.0034105158 -0.0015420277 -0.00484433 -0.024577398 0.037624657 -0.03447901 0.0016287238
0.0126364 -0.021187996 -0.0074283625 0.010997258 -0.036389407 0.0016590903 -0.026896583 0.012496876

residual_block2.conv2.weight f4 [64, 64, 3, 3]
00000000: c9c6 823b 44db f13c 6aef fabc 4dcf df3c
00000010: f0b0 2bbc 2652 35bc c53b 1c3c 44a9 d43b
00000020: 63ef 4d3c 9631 a63c 4ced daba 68e9 aaba
00000030: 4921 0dbd 6033 2bbd 018a 0a3d 0907 b1bc
00000040: 97b9 40bd 595b bc3b 8ef5 c63c 03aa 42bd
00000050: ab57 9dbc 24ef 19bd abe9 403c 84fc 41bd
00000060: 4b98 f8bc a0cf 003c ad64 cabc e4b9 a7bc
00000070: 916b 5bbc df45 b6bc 5826 9a3b c1e3 c7ba
00000080: 156f 7dbd d742 0f3d e402 2d3d 14f1 4fbd
00000090: 2c80 a93c 4e07 333c 23bf 9fbc 5b38 9dbc
000000a0: 9fa5 023d aec2 173c 930e 133d eceb 5ebb
000000b0: cb33 3abd 6e9f 34bd c424 e63b bc7d 31bd
000000c0: 68f9 4b3c 11bb a93c 1e2a 7dbb 9e88 903c
000000d0: 1169 f9bb 38fb eabb 4bc0 1d3d 7664 08bd
000000e0: c3c4 9f3c 086c 04bd 25ed 9dba 1d81 103d
000000f0: cf00 843b 2c7b 13bd a8ae 91bb c239 513b
00000100: 36ae 27bd 2e8b f33c c2da 6b3b b42b 11bd
00000110: 9647 75bd 8385 0f3d 35c8 883c fb09 91bc
00000120: 851b e73c b71b 313c 2a92 af3b 8129 6c3c
00000130: ce89 14bd db45 2abd b64f 2c3c 010e 98bc
00000140: 00a1 2abd 5950 073d 4607 18bd 5403 823c
00000150: ec0b 0dbd 9b9c c1bb a001 9e3c a4e4 4c3b
00000160: d293 92bc 26c0 8abc f861 433c 7805 a83c
00000170: d282 b23c 7264 19bc 5a7e aa3c 51fc bb3c
00000180: f597 af3b deef 34bb 0c0f 91bc 8a35 a53b
00000190: 93b6 d23c c056 10bd c379 69bc f346 f33c
000001a0: 1eb4 513c da07 4abd 0953 38bd 23cc 033d
000001b0: 65a3 30bd 9f78 3abd e74f 3dbd 42ae 393d
000001c0: a23b 63bc a8e0 9fbc 2976 99bc fb54 0f3d
000001d0: f49a 3fbc 68fd 63bd 97d3 3ebd a8a1 04bd
000001e0: 8eca 3dbb c5f0 05bd fa28 b13c 9cc2 acbc
000001f0: 3e0d c0bc fe44 72b9 52bf 31bc a275 52bd
00000200: 7352 763c 9765 3cbd 9de0 63bd f3dc 833c
00000210: 3ad0 983c c3da 943b 9cc7 a13a a277 a43c
00000220: 9c44 613a 007e a73c 2dbb 24bc b718 1c3c
00000230: 760e acbb dab0 0dbd 00e4 ce3b 6fb0 653c
00000240: 37ff 6bba a592 91bd 66a4 80bc 4f93 b8bc
00000250: 8742 fbbc 95d1 1bbd 27a3 093c e128 e33c
00000260: 2f0e f5bb f740 2bbc 2735 253d f364 98bc
00000270: 3e89 abba b5a8 94bc 1b4f ba3c b845 89bc
00000280: 36b7 0fbc 1b17 edbc 997e e3bc 78c7 60bc
00000290: 3087 5bbb b681 2c3c 8b4c bd3a 1c83 4abc
000002a0: f634 e43b 3c89 01b9 2dd2 05bd fa16 343d
000002b0: febb 8dbc 3af8 a1bc a6b3 f3bc dc40 a23c
000002c0: a034 eebc edbd 0ebd d00c ddbb 8289 df3a
000002d0: af88 2e3c 5c10 f1bc 002c 3dbd edcb f13c
000002e0: 77ad 963c a61b 003d 3d57 073d 54d6 e9ba
000002f0: 4540 cb3c 457a 0e3d cd93 703b f1d9 4c3c
00000300: 1b60 95bc 63b3 c4bc 9ebd 49bd 55b8 d1bc
00000310: f4ce 69bd a2b8 9ebb fad8 94bc 6b25 44bd
00000320: 3170 3cbd f7a3 abbb 716b d5bc 3122 1abd
00000330: 809f a3bc 689e 3e3c a5bc 29bc e02b f3bc
00000340: 9fe3 e33b 93c9 0abd 34ad 1bbc b02b 033c
00000350: 2310 0dbd 1530 4e3c 1604 073d 426b eabc
00000360: 5f36 adbc f41e 0c3d 87a2 07bd b55a 2cbd
00000370: 2ae5 a23c 610a 75bc d981 f03b 6ef2 32bd
00000380: 824e 07ba 2c05 89bb 824b ec3c 34cf 053d
00000390: 9197 c93c c051 403d bdf1 053c f223 fc3c
000003a0: 0ca4 fc3a 2beb 513c 0844 1fbb 86fd a63c
000003b0: 09a2 cdbc f84d 243d 4844 f4bc 6e34 e9bc
000003c0: 8655 2d3d 4d4d 0cbd c40f 953c c3ff c63b
000003d0: ab3f 563c 51bb cf3c a6f1 6abd b0e4 c43c
000003e0: 57ae 17bd 396b df3b f63a 8a3c 341b 0bbd
000003f0: 7073 a1bc 4330 66bc 027c 853c cbf1 26bc
0.003990982 0.0295235 -0.03063174 0.027320528 -0.010479197 -0.011066949 0.009535735 0.0064899046
0.012569281 0.020287316 -0.00167028 -0.0013039531 -0.03445557 -0.041797042 0.033823017 -0.0216098
-0.047051992 0.005748194 0.024287011 -0.047525417 -0.019206842 -0.037581578 0.011774461 -0.04735996
-0.030346056 0.007862002 -0.02470621 -0.020474382 -0.013392345 -0.022250114 0.004704278 -0.0015250371
-0.061873514 0.034975853 0.042239085 -0.05076702 0.020691 0.010927035 -0.01950032 -0.019191911
0.03189623 0.009262724 0.03590257 -0.0034015132 -0.04545955 -0.044097356 0.007023426 -0.0433328
0.0124496 0.020719083 -0.003862984 0.01764327 -0.007611402 -0.007171061 0.038513463 -0.033298932
0.019503003 -0.03232959 -0.0012048824 0.035279382 0.0040284167 -0.036006138 -0.0044458695 0.0031925295
-0.040937625 0.029729452 0.0035988544 -0.03544207 -0.059882723 0.035039436 0.016697029 -0.017704954
0.028211365 0.01080983 0.0053580003 0.014414192 -0.036264233 -0.041570526 0.010517051 -0.018561365
-0.041657448 0.03303561 -0.03711631 0.015870728 -0.034435198 -0.0059085614 0.019287884 0.003126421
-0.017892752 -0.016937327 0.011925213 0.02051042 0.021790896 -0.009362327 0.020812202 0.022947462
0.005358691 -0.0027608792 -0.01770737 0.0050417827 0.025721824 -0.03523898 -0.014250222 0.029696917
0.012799291 -0.049323894 -0.045001063 0.0321771 -0.043124575 -0.04552519 -0.04621878 0.0453322
-0.013869198 -0.019516304 -0.018733101 0.034993153 -0.011694659 -0.05566159 -0.046588507 -0.03238073
-0.0028959843 -0.03270032 0.021625984 -0.02108889 -0.023443814 -0.0002310462 -0.010848837 -0.051381715
0.015034306 -0.04599532 -0.05563413 0.016096568 0.018653978 0.00454268 0.0012342813 0.020076577
0.00085932924 0.020445824 -0.010054392 0.009527377 -0.0052507473 -0.034592487 0.006313801 0.014019116
-0.00090025685 -0.07108048 -0.015703391 -0.02253118 -0.030671371 -0.03804167 0.008400715 0.027729454
-0.0074784975 -0.010452501 0.040333893 -0.018602824 -0.0013087166 -0.018146852 0.022742799 -0.016756877
-0.008771708 -0.028941682 -0.027770327 -0.013719432 -0.0033497326 0.010528972 0.0014442367 -0.0123603605
0.0069643212 -0.00012353522 -0.032671142 0.043967225 -0.017301556 -0.019771684 -0.029748749 0.019806318
-0.029077828 -0.034849096 -0.006745912 0.001705453 0.010652705 -0.029426746 -0.04618454 0.029516185
0.018393261 0.031276368 0.03304218 -0.0017840364 0.02481092 0.034784574 0.003670919 0.012503133
-0.018234303 -0.02401132 -0.0492531 -0.025600592 -0.05708213 -0.0048437873 -0.018169869 -0.047887247
-0.04600543 -0.005238052 -0.026052209 -0.037630264 -0.019973516 0.011634447 -0.010359918 -0.029684007
0.006954625 -0.033883642 -0.009501744 0.008006021 -0.034439217 0.012584706 0.03296288 -0.028615598
-0.02114409 0.034209207 -0.033113983 -0.042078692 0.019884665 -0.014956088 0.007339698 -0.04368823
-0.000516154 -0.0041815247 0.028844599 0.032668307 0.024608405 0.046952963 0.008175311 0.030778859
0.0019274964 0.012812416 -0.0024302024 0.020384561 -0.025101678 0.04011342 -0.029817715 -0.028467383
0.04231789 -0.034253407 0.018195994 0.0060729696 0.013076703 0.025357874 -0.05735936 0.024034828
-0.037031498 0.006818202 0.016873818 -0.03396149 -0.019708365 -0.014049592 0.016294483 -0.010189484

residual_block2.conv2.bias f4 [64]
00000000: 1696 a4bc dc0c 86bc 196c 203c 4dad d33c
00000010: ddb6 8a3b e5d4 f63b 1cc6 923c e51c 113c
00000020: 5061 aebc 46ad 18bd 233d 113d 5b9b b3bb
00000030: 88dd 3abc b5a3 ecbc 7ad5 fa3b c116 983c
00000040: e223 dbbc 0460 1e3d b1a2 92bb fced 1bbd
00000050: 1513 393d 92f5 163c 45af 10bc 5fbb bd3c
00000060: 3a0d fe3c dc9f 553c 934f 19bc 3267 2639
00000070: aafa a03c c851 21bd ea1d bc3c 1cf2 303d
00000080: e9c6 e43c 46b7 413d a4d9 e43c 1ce1 89bb
00000090: c04b f6bc c3fb c4bb 6297 033d c543 adbc
000000a0: a5f7 1bbd 273b 80bd c28d 703c 8644 46bc
000000b0: 38fe 68bb 9973 1abd 464d d8bc 97cf 303d
000000c0: 0dce 56bc 5902 29bc 6689 85bc 592b b7bc
000000d0: 9ee5 4e3c 85b8 0e3c 59f0 7fbb 9f2f ac3c
000000e0: 65db 2b3c 984e 23bb a473 5b3c 6f8c 30bc
000000f0: 8640 fa3c 9a33 acbb e711 d33c 67ac e1bb
-0.020091098 -0.016363554 0.0097913975 0.025839472 0.004233225 0.007532703 0.017916732 0.008856987
-0.021286637 -0.03727462 0.035458695 -0.0054811663 -0.011405356 -0.028886655 0.007654843 0.018565537
-0.026750509 0.038665786 -0.0044749607 -0.038068756 0.045184214 0.009213822 -0.00883085 0.023160635
0.031012166 0.013038602 -0.009357351 0.00015869437 0.019650776 -0.039384633 0.022963483 0.043199643
0.027926879 0.047293924 0.02793581 -0.0042077433 -0.030065417 -0.0060114576 0.03212679 -0.02115048
-0.03807797 -0.062612824 0.014682235 -0.012101298 -0.0035551917 -0.0377079 -0.026404034 0.043166723
-0.01311065 -0.010315501 -0.016300868 -0.022359537 0.012627987 0.008710985 -0.003905317 0.021018801
0.010489319 -0.0024918672 0.01339427 -0.0107756695 0.030548345 -0.005255175 0.025765372 -0.006887007
